pretrained/decoder_278.pth (torch, 754217 bytes, 91 tensors)

fc1.0.weight f4 [23680, 4]
-0.18629357 -0.36641234 0.3031843 -0.21126285 -0.15834324 -0.12460256 0.18469293 -0.02332464
-0.08672425 0.31856456 0.03455068 0.3351052 -0.4304584 -0.090950295 0.32012612 -0.35581833
-0.28145742 -0.16639663 -0.34730712 -0.45193845 0.14570376 -0.207475 0.097236186 0.39758754
-0.3967558 -0.4863421 -0.33303225 0.2651371 -0.30909193 -0.44868225 -0.19581312 -0.4042501
-0.48306763 -0.2827869 -0.13440828 0.17065832 0.1413072 -0.37206843 0.08630148 0.21801469
0.097534694 -0.076897725 0.08402157 0.3671262 -0.22780374 0.09550124 -0.40665966 -0.024570901
-0.23340705 0.07148594 0.37094596 -0.44307777 -0.3466949 0.3761321 0.28043815 -0.010098693
-0.013859568 -0.09647477 -0.5136424 -0.43163073 -0.26260528 -0.049026377 0.28418702 0.03120416
-0.3721194 -0.13303491 -0.2538534 -0.29977 0.36561245 -0.030141797 0.33150786 0.42607394
0.36161563 0.08055203 0.09829418 -0.4230384 -0.38189662 0.44211224 0.38307688 0.28662217
0.1620298 -0.18842225 0.14330019 0.44358784 0.260489 0.4513406 -0.012051327 -0.24114469
-0.16520749 0.19262896 -0.3257266 0.16620925 0.2511371 0.13451959 0.01718807 -0.4303664
0.3573772 0.082247235 -0.2006365 0.14784676 -0.47540805 -0.44792396 0.084603764 -0.17604707
-0.10235768 0.34856266 0.1958843 0.2230321 -0.14839323 0.3918677 -0.16129385 -0.31336528
0.4549297 0.060741402 0.39698553 -0.21572849 -0.14768177 0.46030983 0.44404727 0.2967005
0.38581696 -0.3189885 0.19894002 0.09745581 0.35449734 -0.38404793 0.215085 -0.445661
0.20850791 -0.053887185 -0.07866505 -0.4060681 0.35790595 0.308855 0.15940416 -0.40269452
0.1300934 -0.082494736 0.33644643 0.20425008 0.13088636 -0.2684797 0.18602711 0.12224505
-0.09343528 -0.10272911 -0.4137593 0.3247132 0.013293269 0.2677731 -0.3511662 -0.23390219
-0.009313213 -0.16439179 -0.117565565 0.34788978 0.29684657 -0.20362292 0.37855634 -0.17691858
-0.2207235 0.12592833 -0.51219255 -0.33801767 -0.38648206 -0.48756278 -0.23300178 0.28289592
0.24972846 -0.14033762 -0.22255519 0.21811242 0.21632248 -0.24952526 0.088269815 -0.06719759
0.24102622 -0.36309966 -0.119090095 -0.11110144 -0.33536848 0.20781206 0.021707 -0.45648742
0.16321291 -0.5000125 -0.40700105 -0.40529364 -0.091791116 -0.1026003 0.061852988 -0.38001835
0.05409675 0.031479605 -0.39519575 0.26421368 -0.044242304 0.35569623 -0.11392796 -0.17473407
0.27579042 0.2088134 -0.23209871 0.10375582 -0.14554971 -0.14758424 -0.5171488 -0.015813496
-0.18827833 0.24270305 -0.3562261 0.28955808 0.010751181 0.22617464 -0.44957113 -0.478197
0.28252757 -0.060422957 -0.40391558 0.42743814 -0.09358965 0.3351914 0.43644673 -0.0820084
-0.16135228 0.20120394 -0.42695868 -0.059237726 0.38642302 -0.28269696 -0.1757673 0.47382602
0.26445207 0.3653379 0.42569023 0.09995731 0.44321465 0.383315 0.37134436 -0.12074936
0.42927608 -0.14816143 0.26246247 -0.32031327 0.09090896 0.38912 -0.36718243 -0.12154134
0.43432692 -0.32215565 0.3311881 0.29409117 -0.34948352 0.11223273 0.13726197 0.3766586
00000000: bec3 3ebe 669a bbbe f93a 9b3e 4a55 58be
00000010: bb24 22be a12f ffbd 2520 3d3e 5113 bfbc
00000020: 7c9c b1bd e51a a33e 0485 0d3d e992 ab3e
00000030: 0b65 dcbe 2644 babd 92e7 a33e d22d b6be
00000040: 301b 90be e163 2abe 3dd2 b1be 7a64 e7be
00000050: 5e33 153e 5474 54be c423 c73d 9890 cb3e
00000060: 9423 cbbe d501 f9be 3483 aabe 0dc0 873e
00000070: 4c41 9ebe aeb9 e5be 3c83 48be def9 cebe
00000080: a454 f7be 72c9 90be 53a2 09be 0ec1 2e3e
00000090: d6b2 103e c17f bebe d5be b03d 3e3f 5f3e
000000a0: 45c0 c73d 8e7c 9dbd 8013 ac3d f7f7 bb3e
000000b0: 6245 69be 2796 c33d b235 d0be ea48 c9bc
000000c0: 4202 6fbe 3867 923d a1ec bd3e 17db e2be
000000d0: fe81 b1be 6394 c03e 9795 8f3e fd74 25bc
000000e0: 3e13 63bc 9094 c5bd 117e 03bf b4fe dcbe
000000f0: 3374 86be e2cf 48bd f680 913e de9f ff3c
00000100: 6f86 bebe 4e3a 08be 13f9 81be 747b 99be
00000110: 8e31 bb3e eeeb f6bc 66bb a93e 5d26 da3e
00000120: af25 b93e 76f8 a43d 764e c93d 7d98 d8be
00000130: f487 c3be 895c e23e a722 c43e 24c0 923e
00000140: 24eb 253e c3f1 40be 49bd 123e f21d e33e
00000150: d05e 853e 1d16 e73e ee72 45bc a2ee 76be
00000160: 272c 29be 8740 453e a3c5 a6be c232 2a3e
00000170: 0b95 803e 81bf 093e ffcd 8c3c fc58 dcbe
00000180: 25fa b63e 3d71 a83d a873 4dbe 2465 173e
00000190: af68 f3be 4a56 e5be bd44 ad3d af45 34be
000001a0: e7a0 d1bd ce76 b23e e595 483e 8762 643e
000001b0: 65f4 17be e2a2 c83e 372a 25be 6a71 a0be
000001c0: 8cec e83e facb 783d b041 cb3e eee7 5cbe
000001d0: e439 17be bbad eb3e 2a5a e33e 21e9 973e
000001e0: cd89 c53e 7652 a3be efb6 4b3e e996 c73d
000001f0: ad80 b53e eea1 c4be 3e3f 5c3e ae2d e4be
00000200: 1983 553e cfb8 5cbd 241b a1bd 28e8 cfbe
00000210: 733f b73e 3e22 9e3e d83a 233e fa2d cebe
00000220: 3437 053e 00f3 a8bd b542 ac3e ef26 513e
00000230: 1307 063e 2c76 89be e47d 3e3e 9d5b fa3d
00000240: ff5a bfbd a463 d2bd 42d8 d3be cf40 a63e
00000250: 03cc 593c 8e19 893e 0ecc b3be 0e84 6fbe
00000260: 7296 18bc 5256 28be 37c6 f0bd 9c1e b23e
00000270: 46fc 973e 8782 50be 23d2 c13e 252a 35be
00000280: 5705 62be 5bf3 003e 0d1f 03bf a710 adbe
00000290: fae0 c5be d4a1 f9be 0598 6ebe bcd7 903e
000002a0: d1b8 7f3e aab4 0fbe 82e5 63be dd58 5f3e
000002b0: a483 5d3e 8d83 7fbe cec6 b43d e49e 89bd
000002c0: 94cf 763e 33e8 b9be 82e5 f3bd 2789 e3bd
000002d0: 6bb5 abbe afcc 543e e1d2 b13c b8b8 e9be
000002e0: 4921 273e d200 00bf 7162 d0be a682 cfbe
000002f0: fbfc bbbd 1b20 d2bd 8f59 7d3d c491 c2be
00000300: 8e94 5d3d c2f0 003d 1957 cabe 0447 873e
00000310: 6b37 35bd d11d b63e 1053 e9bd 7ded 32be
00000320: 6734 8d3e 2ed3 553e 49ab 6dbe ee7d d43d
00000330: fc0a 15be 5320 17be dd63 04bf 4e8b 81bc
00000340: 09cc 40be 2687 783e 4463 b6be f540 943e
00000350: b925 303c 539a 673e 302e e6be 3dd6 f4be
00000360: 74a7 903e 107e 77bd 06ce cebe 2cd9 da3e
00000370: eeab bfbd 359e ab3e f275 df3e 05f4 a7bd
00000380: 8839 25be 6808 4e3e 549a dabe 42a3 72bd
00000390: 3dd9 c53e a8bd 90be 58fc 33be 5399 f23e
000003a0: 4366 873e 920d bb3e 12f4 d93e 6bb6 cc3d
000003b0: 08ed e23e dd41 c43e d920 be3e 714b f7bd
000003c0: 13ca db3e a1b7 17be 7b61 863e 1a00 a4be
000003d0: 7a2e ba3d bd3a c73e 56ff bbbe abea f8bd
000003e0: 1960 de3e 96f1 a4be 7d91 a93e 1e93 963e
000003f0: 81ef b2be 46da e53d 678e 0c3e 65d9 c03e

fc1.0.bias f4 [23680]
-0.3713016 0.061844386 0.2762056 0.35998577 -0.32578173 0.30878162 -0.399539 0.46862623
0.24115603 -0.054320544 -0.121450104 0.100094445 -0.21232279 0.21866708 0.049380295 -0.2679797
-0.19310166 -0.48379412 -0.008198197 0.11316195 0.13031082 0.48391822 -0.3401088 0.28146693
0.11680409 -0.05993045 -0.084341586 -0.41808054 -0.3570212 0.008058613 0.35173926 0.3186219
0.33515403 -0.0032574213 -0.36804757 0.30491337 -0.40859798 -0.057918232 -0.34166119 -0.46434912
0.14333475 -0.33230925 -0.4756813 -0.23584953 -0.03712023 0.415646 -0.14167854 -0.030241724
-0.026738463 -0.056935463 -0.25764754 -0.10181875 -0.40442726 0.16440071 0.19790381 0.0006484393
0.25216845 0.10616194 0.18757057 0.34855887 -0.46262863 0.29388848 -0.43196455 -0.36405548
-0.04230507 -0.28799853 0.18059254 -0.39624077 0.061982937 0.21342579 0.44183517 -0.13507159
-0.48983178 0.1202313 -0.2698538 0.07525786 0.04923843 0.5159932 0.32366055 0.016019648
0.13118711 -0.10158608 -0.37683716 0.1882198 -0.1775969 -0.5012751 -0.2613427 0.13043866
-0.08742994 0.13508521 0.17231354 0.32753274 0.23257913 0.34144267 -0.08826404 0.13096292
0.26273558 -0.33746567 -0.45417675 0.23708925 -0.4275238 0.020221278 0.3506536 0.04834196
0.087295204 0.047376685 -0.45601413 -0.11085744 0.162143 0.34828705 0.2388156 0.1909364
0.2266751 -0.47958156 0.1110639 -0.0913483 -0.3146967 0.28023478 0.028459432 -0.019696368
0.18283394 -0.4378336 -0.27508873 0.48059294 0.16321069 -0.5078 -0.40042642 0.3942897
-0.09377409 0.4484213 -0.3271526 0.180207 -0.40094385 0.16647695 0.4320475 -0.3761344
0.11147029 -0.37342355 0.16678202 -0.18109557 -0.13695937 0.49365038 -0.0099876225 0.12359068
-0.2103238 -0.4286752 0.48298103 -0.3783332 -0.061124552 -0.1449934 0.011728532 0.2625705
0.55626404 -0.34831825 0.20961322 -0.5062937 -0.24124853 0.32178876 0.3228323 -0.27573848
-0.17011514 0.38532385 -0.22394225 -0.22810118 -0.096312076 0.18112877 0.48648873 0.33073875
0.08689396 0.33383465 -0.24325317 -0.30101782 0.26678777 0.24694097 0.13906741 0.48966825
-0.13975917 -0.32878473 0.4586671 0.34635788 -0.47389632 -0.4241014 -0.31539693 -0.16701718
0.47644895 0.21195585 0.07328043 -0.23101117 0.372409 0.11808154 0.111488715 0.4377372
0.06413762 -0.22876745 -0.29218167 0.075694285 -0.20372307 -0.29459 -0.12223438 -0.26069385
-0.13208565 0.47321698 0.095881015 0.2658605 0.28040048 0.3555734 0.08295618 0.49930945
-0.1811535 -0.18106724 0.041384067 0.2434746 -0.22317787 -0.09684386 -0.5035602 0.108036585
0.05099211 0.30417427 0.4606851 -0.17782526 -0.4090532 0.4555739 -0.21723658 -0.26326424
0.46782365 -0.025740206 0.32112083 -0.23977599 0.4489167 -0.10600116 -0.12265003 -0.37953386
0.027812343 -0.03924843 0.4558471 0.10601134 0.49060172 0.30829987 -0.09042348 -0.29772845
-0.2301953 0.055150583 0.08426702 0.099048845 -0.23959483 -0.32102498 0.073221296 -0.0933521
-0.20549709 0.43657136 -0.10564151 0.25533244 -0.38858423 0.4263588 0.39867276 -0.32437602
00000000: 3e1b bebe 8a50 7d3d d26a 8d3e 0e50 b83e
00000010: ddcc a6be a018 9e3e 6090 ccbe c7ef ef3e
00000020: 9bf1 763e 387f 5ebd d5ba f8bd 51fe cc3d
00000030: 256b 59be 43ea 5f3e fe42 4a3d a334 89be
00000040: 71bc 45be ddb3 f7be bb51 06bc 74c1 e73d
00000050: 3370 053e 21c4 f73e be22 aebe 6f1c 903e
00000060: fc36 ef3d a279 75bd 48bb acbd a70e d6be
00000070: 7ccb b6be 4608 043c 2b17 b43e 6922 a33e
00000080: 4f99 ab3e 767a 55bb bb70 bcbe 9b1d 9c3e
00000090: c133 d1be ab3b 6dbd 37ee aebe 2bbf edbe
000000a0: 58c6 123e 7024 aabe 808c f3be 8a82 71be
000000b0: 620b 18bd 8dcf d43e 2e14 11be 7ebd f7bc
000000c0: 9f0a dbbc 2935 69bd 61ea 83be 5986 d0bd
000000d0: 1711 cfbe a958 283e 4ca7 4a3e 06fc 293a
000000e0: 391c 813e 6e6b d93d 8012 403e 4f76 b23e
000000f0: a9dd ecbe 8d78 963e 752a ddbe 7b65 babe
00000100: 1548 2dbd 8b74 93be 40ed 383e 12e0 cabe
00000110: d2e1 7d3d 4a8c 5a3e 3838 e23e 3550 0abe
00000120: 3bcb fabe d43b f63d 472a 8abe cb20 9a3d
00000130: 3cae 493d 2118 043f d6b6 a53e a33b 833c
00000140: ea55 063e 5d0c d0bd cdf0 c0be b1bc 403e
00000150: f6db 35be 9153 00bf b6ce 85be b691 053e
00000160: 780e b3bd c753 0a3e f672 303e 5fb2 a73e
00000170: 3929 6e3e 93d1 ae3e c7c3 b4bd 251b 063e
00000180: 4785 863e 4dc8 acbe db89 e8be 86c7 723e
00000190: 66e4 dabe 18a7 a53c de88 b33e 3802 463d
000001a0: d4c7 b23d 0e0e 423d af7a e9be 3a09 e3bd
000001b0: d108 263e ae52 b23e 148c 743e d584 433e
000001c0: 841d 683e b78b f5be 7875 e33d d114 bbbd
000001d0: ed1f a1be ef7a 8f3e c123 e93c 475a a1bc
000001e0: d238 3b3e ba2b e0be 6ed8 8cbe 4710 f63e
000001f0: b420 273e 2eff 01bf b104 cdbe 57e0 c93e
00000200: a10c c0bd 7a97 e53e 8c80 a7be 2f88 383e
00000210: 8348 cdbe ef78 2a3e 5435 dd3e b094 c0be
00000220: 894a e43d 5f31 bfbe e8c8 2a3e 1e71 39be
00000230: 143f 0cbe bebf fc3e 20a3 23bc 1c1d fd3d
00000240: 1f5f 57be 517b dbbe 4a49 f73e e4b4 c1be
00000250: bd5d 7abd 2679 14be 0729 403c a46f 863e
00000260: 5267 0e3f c556 b2be d9a4 563e 779c 01bf
00000270: db09 77be 7fc1 a43e 464a a53e 982d 8dbe
00000280: aa32 2ebe 2b49 c53e 1e51 65be 5b93 69be
00000290: 443f c5bd d279 393e 0d15 f93e 9756 a93e
000002a0: 76f5 b13d 60ec aa3e 5c17 79be 021f 9abe
000002b0: 6898 883e 18de 7c3e b067 0e3e ccb5 fa3e
000002c0: 071d 0fbe 7956 a8be 6ad6 ea3e d255 b13e
000002d0: 8aa2 f2be d223 d9be b57b a1be 8d06 2bbe
000002e0: 1ef1 f33e f40a 593e 0d14 963d 318e 6cbe
000002f0: 64ac be3e bcd4 f13d 3254 e43d 171f e03e
00000300: 965a 833d 0442 6abe d698 95be 9b05 9b3d
00000310: c89c 50be 80d4 96be 0556 fabd aa79 85be
00000320: 7641 07be 7f49 f23e 445d c43d de1e 883e
00000330: a790 8f3e b70d b63e eee4 a93d 7da5 ff3e
00000340: 4e80 39be b169 39be 5782 293d 6851 793e
00000350: bd88 64be 1356 c6bd 52e9 00bf 4942 dd3d
00000360: 1add 503d bbbc 9b3e ebde eb3e d317 36be
00000370: 6c6f d1be fb40 e93e 4473 5ebe 92ca 86be
00000380: 9586 ef3e 20dd d2bc f369 a43e d687 75be
00000390: 69d8 e53e 2317 d9bd f02f fbbd 4352 c2be
000003a0: b6d6 e33c f6c2 20bd cb64 e93e 791c d93d
000003b0: 2630 fb3e 7bd9 9d3e f22f b9bd dd6f 98be
000003c0: 51b8 6bbe 94e5 613d 3094 ac3d 1fda ca3d
000003d0: 5958 75be 635d a4be 0cf5 953d 632f bfbd
000003e0: d46d 52be 4886 df3e 935a d8bd efba 823e
000003f0: 83f4 c6be b34b da3e d61e cc3e 9d14 a6be

layers.1.conv1.weight f4 [128, 64, 3]
0.04655612 0.06390806 -0.037176885 0.045789953 0.06987975 -0.037719984 0.058019035 0.0038043216
-0.014711602 0.037177768 -0.018952483 -0.046778522 -0.057569705 -0.0013609033 0.014095123 -0.033099957
-0.04636386 -0.07918941 0.0032052554 -0.029103007 0.010943578 0.05420964 -0.019095723 0.023962615
-0.02436294 0.01868761 0.039806552 -0.038293917 -0.01245076 -0.0156113785 0.0019351768 0.032529503
0.026069524 -0.044709478 0.08400524 0.032841757 -0.048231944 0.01734773 0.061206788 0.0038640208
0.0017790312 -0.071191184 0.020511476 -0.01281438 -0.063551165 -0.06347798 -0.10849454 0.041822758
-0.03393455 -0.0180668 0.041132558 0.039560076 -0.020432571 -0.06517705 0.07247967 0.056257956
-0.03916669 -0.006000738 -0.056038454 -0.08250859 -0.06646399 -0.017435163 -0.050477784 0.026964579
0.042949058 -0.06642182 0.015558697 -0.06200524 -0.020240577 0.03942997 0.054411564 0.071337305
-0.018596193 -0.026026864 0.08291526 0.055194955 0.02168489 -0.053781144 -0.016451191 -0.039817624
0.00021810397 0.010230908 -0.047786344 -0.015514188 -0.031433992 0.020197514 0.041753884 -0.0054898737
0.07348514 -0.007776381 0.052432373 0.015493885 0.033361744 -0.05431695 -0.017447343 0.052918244
-0.01734666 0.06897136 -0.029771382 0.012982548 0.049382336 0.04680963 -0.015288974 0.05211761
0.035057057 0.07237169 0.029534083 -0.06275504 0.017752903 -0.03550304 0.06590727 0.03926129
-0.07130645 0.036608 -0.012855896 0.00018740223 -0.045384016 -0.057713892 -0.03186074 0.07516756
0.07525002 -0.022462998 0.013713514 -0.02395685 0.03228498 0.008285544 -0.061570186 0.05088206
0.0828021 0.06598359 -0.06185222 -0.03539152 0.036444824 -0.0062589776 -0.06404204 0.033285227
-0.05580831 0.041583266 0.025968304 -0.06087491 -0.04855515 -0.02151364 -0.05146792 -0.04781622
-0.009418705 0.0047882115 -0.08305128 -0.039148398 -0.0407583 -0.01959546 0.049248405 -0.04111613
0.022597095 -0.050617922 0.021306133 -0.04506364 0.037121035 -0.020146884 -0.032342315 8.288099e-05
0.04064551 -0.049155723 -0.041399557 -0.059944626 0.0073291445 0.058092594 0.05827116 0.0471575
0.0373755 0.047635544 0.027126286 -0.05054981 -0.03442389 -0.06576887 0.040406343 -0.08077969
-0.033200458 0.055212963 0.024726544 0.074703954 0.014783905 0.0019342675 0.021698479 0.007856869
0.023341835 0.020170867 0.049409863 0.07246384 -0.054554332 0.08285342 -0.028920077 0.02557533
-0.06966164 -0.03737425 0.04591378 -0.006643521 -0.024398938 0.02018783 -0.008012797 -0.055528857
0.02614341 -0.012243005 0.022739414 0.0014084578 -0.04486477 0.019150972 -0.06623631 -0.020913703
0.002781547 -0.011799242 -0.023717659 0.03194038 -0.060980212 -0.009503582 -0.004093148 0.05104238
0.040154066 -0.02853536 -0.026611878 -0.056400396 0.058845248 0.029736793 0.033472113 0.045200497
0.03805577 0.02416131 -0.0791379 -0.03489916 0.007120198 -0.046802536 -0.011546334 -0.017495632
-0.04503713 -0.003428559 -0.023057112 0.015466741 0.004922468 -0.02201622 0.022468582 0.010925737
0.029937232 0.03208638 0.036423575 -0.00048288138 -0.033551153 -0.05798678 -0.107086115 0.045721024
0.003141958 0.07996375 -0.0634233 -0.014798957 0.012585704 -0.029979613 -0.022545613 -0.058018636
00000000: a1b1 3e3d 3be2 823d ca46 18bd 3f8e 3b3d
00000010: 1d1d 8f3d 4580 1abd 5ea5 6d3d ed51 793b
00000020: ee08 71bc b747 183d 3d42 9bbc d69a 3fbd
00000030: 36ce 6bbd 5660 b2ba 3bef 663c d293 07bd
00000040: 08e8 3dbd 0f2e a2bd 430f 523b 6e69 eebc
00000050: b14c 333c ed0a 5e3d a26e 9cbc 3f4d c43c
00000060: ca94 c7bc c216 993c 320c 233d 15da 1cbd
00000070: 46fe 4bbc dec6 7fbc c2a5 fd3a a83d 053d
00000080: c18f d53c 4921 37bd f00a ac3d 1485 063d
00000090: dc8e 45bd d41c 8e3c f8b3 7a3d 833b 7d3b
000000a0: 622e e93a afcc 91bd af07 a83c 68f3 51bc
000000b0: 1d27 82bd be00 82bd 6332 debd 574e 2b3d
000000c0: f4fe 0abd d300 94bc 9d7a 283d bf09 223d
000000d0: 3562 a7bc 8c7b 85bd 3970 943d be6e 663d
000000e0: 406d 20bd d7a1 c4bb 9488 65bd 43fa a8bd
000000f0: 461e 88bd 30d4 8ebc cbc1 4ebd d2e4 dc3c
00000100: 5aeb 2f3d 2a08 88bd e8e9 7e3c 35f9 7dbd
00000110: 91cf a5bc 5281 213d a9de 5e3d 4b19 923d
00000120: 0b57 98bc 4a36 d5bc 7acf a93d 1b14 623d
00000130: 83a4 b13c 9e49 5cbd a6c4 86bc ce17 23bd
00000140: d7b2 6439 8a9f 273c 9dbb 43bd 392f 7ebc
00000150: eec0 00bd 4275 a53c 1f06 2b3d 66e4 b3bb
00000160: 617f 963d 03d1 febb 54c3 563d 10da 7d3c
00000170: 53a6 083d 737b 5ebd bbed 8ebc cdc0 583d
00000180: 951a 8ebc db40 8d3d 1de3 f3bc c1b4 543c
00000190: 2245 4a3d 74bb 3f3d 9b7e 7abc 4679 553d
000001a0: fd97 0f3d 9c37 943d 76f1 f13c b785 80bd
000001b0: 896e 913c a36b 11bd 64fa 863d 72d0 203d
000001c0: 1e09 92bd 45f2 153d 89a1 52bc 6781 4439
000001d0: 97e4 39bd 6765 6cbd 6880 02bd 73f1 993d
000001e0: af1c 9a3d 5204 b8bc a6ae 603c 2841 c4bc
000001f0: 413d 043d 17c0 073c 0531 7cbd b569 503d
00000200: 2694 a93d 6822 873d c158 7dbd b3f6 10bd
00000210: 2b47 153d 1c18 cdbb 7928 83bd 1756 083d
00000220: 4197 64bd 3753 2a3d 7bbb d43c f857 79bd
00000230: c4e1 46bd 603d b0bc 07d0 52bd f1da 43bd
00000240: e950 1abc 6ee6 9c3b ca16 aabd 125a 20bd
00000250: 2df2 26bd a886 a0bc b2b8 493d 6369 28bd
00000260: 8b1d b93c bd54 4fbd 338a ae3c a794 38bd
00000270: 3a0c 183d 140b a5bc 6079 04bd 65d0 ad38
00000280: e87b 263d 8357 49bd 9592 29bd 7f88 75bd
00000290: 5229 f03b 80f2 6d3d bdad 6e3d 3928 413d
000002a0: 0d17 193d 7d1d 433d f237 de3c 510d 4fbd
000002b0: 1100 0dbd d4b1 86bd 1f81 253d d26f a5bd
000002c0: 34fd 07bd fd26 623d 528f ca3c 63fe 983d
000002d0: 3138 723c 3f87 fd3a 02c1 b13c 19ba 003c
000002e0: 6037 bf3c 603d a53c ff61 4a3d ec67 943d
000002f0: 5d74 5fbd 0eaf a93d cce9 ecbc 5b83 d13c
00000300: c3aa 8ebd be15 19bd 1610 3c3d e5b1 d9bb
00000310: 48e0 c7bc f360 a53c 1b48 03bc 3a72 63bd
00000320: b42a d63c e396 48bc 0248 ba3c 009c b83a
00000330: 1fc4 37bd 80e2 9c3c e7a6 87bd 3753 abbc
00000340: 9d4a 363b 9c51 41bc 894b c2bc ead3 023d
00000350: 63c6 79bd e9b4 1bbc d01f 86bb d111 513d
00000360: 9778 243d fdc2 e9bc 2701 dabc 1a04 67bd
00000370: b707 713d 939a f33c 0e1a 093d 2824 393d
00000380: 5ee0 1b3d f1ed c53c 0d13 a2bd 6cf2 0ebd
00000390: 8d50 e93b 04b4 3fbd d62c 3dbc 0053 8fbc
000003a0: db78 38bd adb1 60bb 45e2 bcbc 3768 7d3c
000003b0: a84c a13b 5c5b b4bc 0810 b83c dd01 333c
000003c0: ed3e f53c 026d 033d e330 153d 3e2b fdb9
000003d0: ef6c 09bd 8c83 6dbd f74f dbbd f845 3b3d
000003e0: 4fe9 4d3b 09c4 a33d 13e4 81bd 5377 72bc
000003f0: 4534 4e3c ce97 f5bc 94b1 b8bc f3a4 6dbd

layers.1.conv1.bias f4 [64]
-0.038175594 -0.06840408 0.007008498 0.06615003 -0.022730026 0.020547751 -0.0006833345 0.007728851
0.0015668459 -0.023338834 -0.005486529 -0.004459914 0.06859257 0.008516125 -0.04243407 -0.048128348
-0.07587136 0.061320916 -0.054038964 0.055196624 -0.058692984 -0.038572364 0.029459745 -0.0040360116
-0.029797973 -0.062147807 -0.038831 0.05045125 -0.057810187 -0.0028924916 0.03444218 0.051416215
0.06057479 0.0664162 -0.0014832785 -0.0513966 0.023476275 0.014998743 0.02050814 -0.064916246
0.06130508 -0.03206224 -0.030165559 0.01384576 -0.06854376 -0.06660422 -0.04828489 0.030236056
0.06715241 0.015069612 0.0400217 0.049635727 0.01681391 0.024069902 0.04698997 -0.059751563
0.07167015 -0.035305616 -0.016015299 0.050878473 0.06123711 0.02035799 0.03611903 0.029231617
00000000: 035e 1cbd 7017 8cbd 8ba7 e53b ab79 873d
00000010: 5234 babc c253 a83c cd21 33ba 4d42 fd3b
00000020: a05e cd3a 1531 bfbc 57c8 b3bb 7824 92bb
00000030: 437a 8c3d 3887 0b3c 59cf 2dbd 3b22 45bd
00000040: 7262 9bbd a42b 7b3d f657 5dbd db15 623d
00000050: 0e68 70bd 0efe 1dbd 9055 f13c 8540 84bb
00000060: e11a f4bc b38e 7ebd 410d 1fbd f8a5 4e3d
00000070: 60ca 6cbd f58f 3dbb 3e13 0d3d cf99 523d
00000080: 451d 783d 3705 883d 916a c2ba 3e85 52bd
00000090: 5151 c03c 4abd 753c b000 a83c cff2 84bd
000000a0: 091b 7b3d b253 03bd c31d f7bc 54d9 623c
000000b0: ac60 8cbd cb67 88bd 60c6 45bd 9bb1 f73c
000000c0: 3487 893d 89e6 763c cbed 233d d54e 4b3d
000000d0: 53bd 893c 3e2e c53c 8e78 403d 0ebe 74bd
000000e0: cdc7 923d 9f9c 10bd 8432 83bc f265 503d
000000f0: c4d3 7a3d cdc5 a63c 8cf1 133d 2577 ef3c

layers.1.norm1.weight f4 [64]
0.9971979 1.0083736 0.99363196 0.9833624 1.0353718 1.0146973 0.99436635 1.0563946
1.0117168 0.9699908 1.047652 0.99350905 0.99923235 1.0128943 0.98945785 0.9939748
0.9802252 0.98372185 0.99343973 0.98058665 1.0065936 1.0147111 1.0092504 0.98605394
0.9991521 1.0215474 1.0114102 0.96409345 1.0058144 1.0033027 1.0147935 1.0069991
0.9882745 1.00855 1.0249339 1.0189551 1.0067832 0.9903262 0.9981397 1.0066575
1.0141617 1.0141935 1.0155313 0.9987553 1.0210912 1.0093156 1.0033013 1.0135554
1.0150791 1.0164795 0.9828463 1.0116866 1.011272 1.0676422 1.0188153 0.994081
0.9815924 1.0005635 0.97943324 0.99415714 1.006504 1.0230175 0.9982191 1.0095527
00000000: 5d48 7f3f 6312 813f aa5e 7e3f a3bd 7b3f
00000010: 1087 843f 9ae1 813f cb8e 7e3f f037 873f
00000020: f07f 813f 5151 783f 7619 863f 9c56 7e3f
00000030: b1cd 7f3f 85a6 813f 1c4d 7d3f 2275 7e3f
00000040: 0af0 7a3f 32d5 7b3f 1152 7e3f ba07 7b3f
00000050: 0fd8 803f 0ee2 813f 1e2f 813f 086e 7c3f
00000060: 6fc8 7f3f 11c2 823f e475 813f d4ce 763f
00000070: 87be 803f 396c 803f c1e4 813f 59e5 803f
00000080: 8fff 7c3f 2b18 813f 0931 833f 1f6d 823f
00000090: 46de 803f 0586 7d3f 1586 7f3f 27da 803f
000000a0: 0dd0 813f 18d1 813f eefc 813f 6dae 7f3f
000000b0: 1eb3 823f 4131 813f 2d6c 803f 2fbc 813f
000000c0: 1dee 813f 001c 823f d19b 7b3f f27e 813f
000000d0: 5c71 813f 80a8 883f 8a68 823f 187c 7e3f
000000e0: a449 7b3f 7712 803f 23bc 7a3f 1581 7e3f
000000f0: 20d5 803f 3df2 823f 498b 7f3f 0639 813f

layers.1.norm1.bias f4 [64]
0.009124706 0.004692398 0.0005209392 -0.0077776676 0.013083797 0.01090098 -0.008311287 0.02278486
0.006531753 -0.0052272035 0.017026845 0.037736535 -0.00047520793 0.04721476 -0.002883606 0.01764319
-0.011992043 0.0076819863 0.014878882 0.02557953 0.012372322 0.01938508 0.012739218 0.0028732985
0.014152058 -0.016230984 -0.00077803433 -0.014668402 0.00089743565 0.026213003 -0.0046859896 0.0013338694
-0.0033885366 -0.024734652 0.0036177824 0.024421187 0.02893587 -0.016214702 0.03270501 -0.025340885
0.016166592 0.021521483 0.0052329316 0.032504722 0.0069149467 0.018495502 0.00046425287 0.014080824
0.023036988 0.030803027 -0.0011107151 -0.025311954 0.028909946 -0.007572113 -0.006943575 -0.012307394
0.015946291 0.0021035767 -0.010573806 0.003840364 0.008101333 -0.032105707 0.012319334 0.0028810934
00000000: ca7f 153c b0c2 993b a38f 083a cedb febb
00000010: 6c5d 563c 069a 323c 102c 08bc 51a7 ba3c
00000020: 5108 d63b f648 abbb e27b 8b3c a091 1a3d
00000030: 5425 f9b9 4464 413d e1fa 3cbb 7488 903c
00000040: 467a 44bc 2cb9 fb3b 8ec6 733c 2a8c d13c
00000050: 48b5 4a3c 76cd 9e3c 27b8 503c f34d 3c3b
00000060: 09de 673c d7f6 84bc 00f5 4bba bd53 70bc
00000070: e341 6b3a a7bc d63c ee8c 99bb 3bd5 ae3a
00000080: 3612 5ebb 53a0 cabc 5118 6d3b f10e c83c
00000090: eb0a ed3c b2d4 84bc b0f5 053d b097 cfbc
000000a0: cd6f 843c d24d b03c 0379 ab3b ac23 053d
000000b0: c796 e23b e183 973c f766 f339 42b3 663c
000000c0: 11b8 bc3c a156 fc3c 6a95 91ba 045b cfbc
000000d0: 8dd4 ec3c 7d1f f8bb ee86 e3bb f4a4 49bc
000000e0: cca1 823c 29dc 093b c23d 2dbc 9eae 7b3b
000000f0: 74bb 043c 4681 03bd 08d7 493c bad0 3c3b

layers.1.norm1.running_mean f4 [64]
-0.09572048 -0.08688183 0.030322501 0.02374422 0.0054287515 -0.004298864 -0.035921797 -0.023764059
-0.027261034 -0.08264216 -0.003674245 0.0058561033 0.055241935 -0.011053258 -0.0744471 -0.056599583
-0.039514653 0.08273181 -0.05525392 0.032009676 -0.06756504 -0.06577505 -0.009521579 0.007744531
-0.041154947 -0.06858815 -0.059931163 0.022807436 -0.07180349 -0.00083891646 -0.0013515151 0.03061094
0.0062349234 0.018356657 -0.060686372 -0.049816597 0.034832038 -0.024431711 0.006130875 -0.110891804
0.10471984 -0.035962425 -0.029197963 0.06926713 -0.096640326 -0.09306035 -0.05654045 0.005919484
0.050584845 -0.007498128 0.021180766 0.054394662 0.03224428 -0.0031252427 0.045360964 -0.11482271
0.051087435 -0.05915982 -0.06277223 0.05227291 0.089733094 0.020070165 0.056331746 -0.0008126857
00000000: 1909 c4bd 1aef b1bd e566 f83c 3d83 c23c
00000010: abe3 b13b 7cdd 8cbb bc22 13bd d8ac c2bc
00000020: 8852 dfbc 4b40 a9bd 9acb 70bb 8ee4 bf3b
00000030: 5e45 623d b918 35bc b977 98bd f7d4 67bd
00000040: 1eda 21bd 4c6f a93d ef51 62bd 941c 033d
00000050: 8a5f 8abd 12b5 86bd 6600 1cbc d6c5 fd3b
00000060: 1792 28bd f277 8cbd 617a 75bd a9d6 ba3c
00000070: b50d 93bd bbea 5bba 5225 b1ba cbc3 fa3c
00000080: 544e cc3b b360 963c 4692 78bd 7d0c 4cbd
00000090: 0aac 0e3d 0325 c8bc 82e5 c83b 3e1b e3bd
000000a0: 5b77 d63d 564d 13bd 9130 efbc eddb 8d3d
000000b0: 5deb c5bd 6d96 bebd f596 67bd 3bf8 c13b
000000c0: 0e32 4f3d dbb2 f5bb 4983 ad3c f0cc 5e3d
000000d0: 9412 043d dfd0 4cbb 6bcc 393d 2b28 ebbd
000000e0: 0f41 513d 9151 72bd ba8e 80bd 1e1c 563d
000000f0: fcc5 b73d 306a a43c 1ebc 663d 6a0a 55ba

layers.1.norm1.running_var f4 [64]
0.025366416 0.025441555 0.024961479 0.024686942 0.024997016 0.026115887 0.027163466 0.025353631
0.022583954 0.027107218 0.027308082 0.027553389 0.027648726 0.02363803 0.027448215 0.024140118
0.03124017 0.023270914 0.024702381 0.025790952 0.027050253 0.024674729 0.022153284 0.0284106
0.030134207 0.023546303 0.025655206 0.022598203 0.02315691 0.029955138 0.022068659 0.02272046
0.030447217 0.024465194 0.030460732 0.0240266 0.02217373 0.02913472 0.026514621 0.023812717
0.026998375 0.023668433 0.022563891 0.033173442 0.030251496 0.02886096 0.028315222 0.023798667
0.026737964 0.027296372 0.02406041 0.027984133 0.025741912 0.026545882 0.026707266 0.028629713
0.023938667 0.024407083 0.02269831 0.023701878 0.026266929 0.021940067 0.0289788 0.02529022
00000000: 3bcd cf3c cf6a d03c 047c cc3c 453c ca3c
00000010: 8bc6 cc3c fcf0 d53c eb85 de3c 6bb2 cf3c
00000020: fc01 b93c f50f de3c 33b5 df3c a5b7 e13c
00000030: 957f e23c 8ba4 c13c 14db e03c 7fc1 c53c
00000040: 63eb ff3c a5a2 be3c a65c ca3c 8c47 d33c
00000050: 7e98 dd3c a822 ca3c ce7a b53c 59bd e83c
00000060: 03dc f63c 2de4 c03c de2a d23c de1f b93c
00000070: 8fb3 bd3c 7a64 f53c 55c9 b43c 4220 ba3c
00000080: 716c f93c 3b6b c83c c988 f93c 6fd3 c43c
00000090: afa5 b53c f0ab ee3c 3135 d93c e312 c33c
000000a0: b22b dd3c 4de4 c13c e9d7 b83c e0e0 073d
000000b0: fcd1 f73c d26d ec3c 53f5 e73c 6cf5 c23c
000000c0: 9309 db3c a49c df3c 561a c53c fb3e e53c
000000d0: b4e0 d23c c076 d93c 32c9 da3c dc88 ea3c
000000e0: 061b c43c 5df1 c73c cef1 b93c 712a c23c
000000f0: be2d d73c a8bb b33c f364 ed3c 6f2d cf3c

layers.1.conv2.weight f4 [64, 64, 3]
-0.026121119 -0.018565373 -0.06586297 -0.019191194 0.033337075 -0.07522305 0.04311255 -0.03360422
-0.011481078 0.0026631167 -0.046038542 -0.0021403392 -0.036725093 -0.008408794 0.022397868 -0.0493167
0.047174785 0.040036548 0.032308653 -0.06315682 -0.05084903 0.009100008 0.031056156 -0.019503376
-0.023427617 -0.015586178 0.07571034 0.01129167 0.022015503 0.039771117 0.0030996164 0.04573799
0.045730557 -0.0314349 0.036684606 -0.03771868 -0.006079081 -0.0013554919 0.072861 -0.0043532853
0.063523345 -0.027630141 0.050620027 0.049990386 0.034828007 0.022658976 -0.061154388 0.07485807
-0.031872917 0.043657012 -0.061371535 0.040124375 -0.049283177 0.01497092 -0.079974964 -0.044030502
0.004058059 -0.017042076 -0.028045751 0.056070045 0.065481566 0.054066278 -0.006553298 -0.02622145
-0.019228231 0.05929139 -0.073707715 0.046697058 0.024191909 -0.011242977 -0.062559806 -0.019487321
-0.049414728 -0.03918728 -0.051076703 -0.05593648 -0.00829846 -0.020293258 -0.021205468 0.04488406
-0.05781701 0.04389918 0.071064666 -0.039548088 -0.0078602815 0.042344756 -0.055642355 -0.007638919
0.005457475 0.053312983 -0.08719248 -0.047756087 -0.03284195 0.07530652 -0.05418806 0.08377127
-0.034800295 0.065056756 -0.0348455 0.07437451 -0.053544883 -0.010261449 -0.03701092 0.019897442
-0.01352499 -0.014499967 -0.043762065 0.015904605 -0.041573636 -0.043209415 -0.09021049 0.031015871
0.0456243 0.022955967 -0.031063335 0.029582838 0.0060924063 -0.03403331 0.038797714 -0.047513995
0.009418929 -0.004773629 0.048288766 0.040730186 -0.0023886666 -0.04379202 0.0049219625 0.055751916
0.03607725 -0.024201611 0.06249704 0.0714575 0.048172258 0.036088083 -0.050200988 -0.0010627975
-0.03133726 0.01330185 -0.0027068858 -0.04376843 -0.005678569 -0.008671521 -0.004603521 -0.012960429
0.04456638 0.024371132 -0.01331212 0.0069367155 -0.011891284 0.07358322 -0.03711592 0.022824246
0.037032966 -0.013187015 0.072938256 0.017926324 -0.023676345 0.0573276 -0.029301062 -0.04737708
0.041157324 -0.0648738 -0.043902293 0.0042733606 -0.03701403 0.019281914 -0.019537523 -0.038119804
0.011257497 -0.01844943 -0.041367576 -0.0841424 0.037119605 -0.025035094 0.017989328 -0.04248845
0.04628297 0.050365817 -0.0426732 0.04341941 0.067243695 -0.09754242 0.049796827 -0.03306867
-0.018754384 0.017431276 -0.064765304 -0.06176374 0.01263284 0.066754036 -0.03979368 -0.041715596
-0.06849188 0.05469609 -0.006324459 -0.02043335 -0.064309426 -0.005682452 -0.013265497 0.050849713
0.03615861 -0.0063090143 -0.0114584165 -0.04975467 0.032022588 0.006269191 -0.04870131 -0.0046426123
0.021553218 0.012529465 0.0807991 -0.044814594 -0.030948602 -0.05466937 -0.002317514 0.012333467
-0.045901723 0.009669188 0.06695599 -0.022729589 -0.033396862 -0.024170332 0.06296741 -0.04603377
-0.081887476 -0.05582149 -0.045720913 0.04032592 0.006831777 0.040395 -0.05098529 -0.02062166
0.022746835 -0.0077407393 -0.014197128 -0.05740353 -0.019208921 -0.06649194 -0.071419135 -0.033878066
0.0057933456 0.04157272 0.03318354 -0.016427932 0.08897668 0.07338325 -0.027677432 -0.04038566
0.041004412 -0.026849087 0.038225606 -0.008047199 0.073295094 0.027754147 0.07194182 -0.010677619
00000000: f5fb d5bc 6916 98bc 2ae3 86bd da36 9dbc
00000010: 758c 083d 8b0e 9abd c996 303d 94a4 09bd
00000020: 221b 3cbc af87 2e3b e992 3cbd ef44 0cbb
00000030: 0d6d 16bd 0ac5 09bc bc7b b73c 4f00 4abd
00000040: 593a 413d 5dfd 233d 1456 043d 5d58 81bd
00000050: 1347 50bd 3318 153c 7b69 fe3c 8bc5 9fbc
00000060: 46eb bfbc 2b5d 7fbc 060e 9b3d b200 393c
00000070: db59 b43c 0ae7 223d ef22 4b3b c257 3b3d
00000080: f74f 3b3d e2c1 00bd 9942 163d e77e 1abd
00000090: 0733 c7bb c3aa b1ba 2638 953d 01a6 8ebb
000000a0: 8718 823d 9b58 e2bc f256 4f3d b8c2 4c3d
000000b0: d0a7 0e3d 519f b93c 067d 7abd 304f 993d
000000c0: 2d8d 02bd b2d1 323d b860 7bbd 7559 243d
000000d0: 28dd 49bd 9748 753c eac9 a3bd 5459 34bd
000000e0: 77f9 843b d39b 8bbc 34c0 e5bc b4a9 653d
000000f0: 331b 863d 9a74 5d3d 0cbd d6bb 5ece d6bc
00000100: 8684 9dbc 87db 723d 12f4 96bd 6a45 3f3d
00000110: 1c2e c63c 7734 38bc 5b1f 80bd e0a3 9fbc
00000120: 1967 4abd d782 20bd ce35 51bd a71d 65bd
00000130: 44f6 07bc 0c3e a6bc 17b7 adbc 59d8 373d
00000140: 87d1 6cbd a0cf 333d 5a8a 913d 2dfd 21bd
00000150: 69c8 00bc b271 2d3d 3de9 63bd e64f fabb
00000160: 9ed4 b23b b75e 5a3d f991 b2bd e39b 43bd
00000170: 4885 06bd 4e3a 9a3d 4df4 5dbd 4690 ab3d
00000180: c18a 0ebd 7a3c 853d 28ba 0ebd aa51 983d
00000190: e151 5bbd a31f 28bc c398 17bd f6ff a23c
000001a0: eb97 5dbc 4591 6dbc da3f 33bd 604a 823c
000001b0: 1e49 2abd 5bfc 30bd 47c0 b8bd ff14 fe3c
000001c0: 8ce0 3a3d 270e bc3c 8978 febc b557 f23c
000001d0: cfa2 c73b 8366 0bbd 5aea 1e3d 099e 42bd
000001e0: da51 1a3c 1a6c 9cbb 71ca 453d b2d4 263d
000001f0: 2d8b 1cbb 435f 33bd 6a48 a13b 1f5c 643d
00000200: bdc5 133d 7542 c6bc e5fc 7f3d 4f58 923d
00000210: 4650 453d 19d1 133d 8d9f 4dbd 914d 8bba
00000220: 805b 00bd 01f0 593c 0266 31bb 8646 33bd
00000230: 4a13 babb ff12 0ebc 22d9 96bb fb57 54bc
00000240: 3d8b 363d f8a5 c73c 141b 5abc 634d e33b
00000250: a9d3 42bc cdb2 963d dd06 18bd eaf9 ba3c
00000260: e1af 173d 5a0e 58bc a760 953d 3ada 923c
00000270: e5f4 c1bc 58d0 6a3d c808 f0bc 780e 42bd
00000280: 9594 283d 8edc 84bd e4d2 33bd 8c07 8c3b
00000290: 069c 17bd 1bf5 9d3c 280d a0bc 8323 1cbd
000002a0: 5d71 383c 4223 97bc 0c71 29bd da52 acbd
000002b0: ba0a 183d 6616 cdbc 5b5e 933c 5e08 2ebd
000002c0: 3693 3d3d 634c 4e3d 18ca 2ebd 8dd8 313d
000002d0: 10b7 893d 52c4 c7bd c2f7 4b3d 0473 07bd
000002e0: cba2 99bc 09cc 8e3c aca3 84bd fafb 7cbd
000002f0: f9f9 4e3c 57b6 883d b3fe 22bd f9dd 2abd
00000300: 7945 8cbd 0209 603d 683d cfbb d763 a7bc
00000310: a9b4 83bd dd33 babb 8757 59bc ca47 503d
00000320: 0d1b 143d d9bb cebb 15bc 3bbc 8ecb 4bbd
00000330: 1e2a 033d c96d cd3b 067b 47bd 0e21 98bb
00000340: 6090 b03c 6348 4d3c 007a a53d 828f 37bd
00000350: ec87 fdbc fdec 5fbd 6fe1 17bb 4f12 4a3c
00000360: 7203 3cbd 846b 1e3c 3920 893d 6733 babc
00000370: 26cb 08bd dc00 c6bc 0ff5 803d e88d 3cbd
00000380: 9fb4 a7bd 13a5 64bd da45 3bbd cb2c 253d
00000390: 19dd df3b 3a75 253d f4d5 50bd c1ee a8bc
000003a0: 9257 ba3c 07a6 fdbb 129b 68bc f71f 6bbd
000003b0: 075c 9dbc ed2c 88bd 3244 92bd bac3 0abd
000003c0: 1bd6 bd3b 2848 2a3d 77eb 073d df93 86bc
000003d0: 6839 b63d f549 963d c8bb e2bc 6f6b 25bd
000003e0: 3ef4 273d 9ef2 dbbc 7492 1c3d 66d8 03bc
000003f0: bd1b 963d aa5c e33c 3c56 933d 2ef1 2ebc

layers.1.conv2.bias f4 [64]
-0.060379576 -0.051942773 0.030065069 -0.026815232 -0.056629755 0.021709895 -0.0041419268 -0.06461327
-0.0021456396 0.066746764 0.052284323 -0.032218974 -0.06502632 -0.020268757 -0.054999042 0.019209959
0.066583715 -0.059789747 0.067574374 0.031074945 0.060139563 0.056420017 0.002602367 0.029507197
-0.038680404 -0.030353745 -0.06448961 0.06811751 0.0125322165 0.023131821 -0.0056263003 0.05186645
0.025658214 0.028284505 -0.05403394 -0.0317961 0.03626676 0.0570273 0.0017316586 -0.01896475
0.012453611 -0.023634635 -0.07210485 0.005677213 0.06339699 -0.025268609 -0.00500098 -0.028260468
-0.055903874 -0.07150959 -0.06948475 -0.045756817 -0.04615204 -0.05117954 -0.030041289 0.041063655
0.065539785 -0.024854241 -0.008038288 -0.07201701 -0.043968935 0.003550962 0.012827299 0.00676
00000000: 9350 77bd f2c1 54bd 054b f63c 9eab dbbc
00000010: 9af4 67bd f3d8 b13c 00b9 87bb f653 84bd
00000020: dc9d 0cbb 87b2 883d 1628 563d 0bf8 03bd
00000030: 852c 85bd aa0a a6bc ad46 61bd 345e 9d3c
00000040: 0b5d 883d 18e6 74bd 6f64 8a3d e290 fe3c
00000050: e754 763d ad18 673d 798c 2a3b 14b9 f13c
00000060: 586f 1ebd 6ba8 f8bc 2113 84bd 3181 8b3d
00000070: ed53 4d3c f27e bd3c d45c b8bb ea71 543d
00000080: 2d31 d23c e8b4 e73c b152 5dbd a13c 02bd
00000090: 748c 143d 7595 693d d2f8 e23a f75b 9bbc
000000a0: 3b0a 4c3c 6c9d c1bc b5ab 93bd ea07 ba3b
000000b0: 48d6 813d 1d00 cfbc 43df a3bb 7f82 e7bc
000000c0: 76fb 64bd 9f73 92bd 054e 8ebd 806b 3bbd
000000d0: ec09 3dbd a3a1 51bd 2619 f6bc 5d32 283d
000000e0: b939 863d 1f9b cbbc 06b3 03bc a77d 93bd
000000f0: c518 34bd 42b7 683b 9729 523c fd82 dd3b

layers.1.norm2.weight f4 [64]
1.0150133 1.0095761 1.0144004 1.0164387 1.0583204 1.0415972 1.0512261 1.0217098
1.019927 1.0296704 1.0385612 1.039467 1.0175046 1.0145669 1.0200003 1.0243626
1.0382475 1.0407878 1.0209429 1.0167327 1.0282527 1.0270258 1.0400609 1.0353271
1.0732993 1.0036262 1.0163485 1.046006 1.0264862 1.0180733 1.0313263 1.0144792
1.0439565 1.0314069 1.0669882 1.0253829 1.0279579 1.054567 1.0116645 1.055099
1.0036094 1.0328629 1.0154083 1.0304681 1.0480151 1.0394839 1.0587165 1.0369112
1.0724369 1.0631254 1.0156783 1.0274527 1.0295876 1.0548137 1.0476029 1.0403531
1.0342944 1.0598611 1.015436 0.9960312 1.033333 1.0381111 1.0532128 1.0256599
00000000: f5eb 813f ca39 813f dfd7 813f aa1a 823f
00000010: 0b77 873f 0f53 853f 948e 863f 63c7 823f
00000020: f88c 823f 3dcc 833f 93ef 843f 410d 853f
00000030: 973d 823f 54dd 813f 5f8f 823f 501e 833f
00000040: 4be5 843f 8938 853f 42ae 823f 4c24 823f
00000050: c99d 833f 9575 833f b720 853f 9985 843f
00000060: df61 893f d376 803f b517 823f 86e3 853f
00000070: e663 833f 3a50 823f 8002 843f 74da 813f
00000080: 5ea0 853f 2405 843f 1293 883f bf3f 833f
00000090: 2094 833f 0dfc 863f 397e 813f 7c0d 873f
000000a0: 4676 803f da34 843f e6f8 813f 61e6 833f
000000b0: 5c25 863f cf0d 853f 0684 873f 82b9 843f
000000c0: 9d45 893f 7e14 883f bf01 823f 9283 833f
000000d0: 87c9 833f 2304 873f da17 863f 4a2a 853f
000000e0: c263 843f 87a9 873f cff9 813f e7fb 7e3f
000000f0: 4144 843f d3e0 843f adcf 863f d348 833f

layers.1.norm2.bias f4 [64]
0.06256668 -0.009358428 -0.0041219625 0.027249431 -0.017751347 0.05576357 0.04806395 0.006347788
0.025491672 0.029444354 0.041532185 0.058755666 0.016613085 0.0868088 0.032464582 0.0041205017
-0.018877732 0.044695444 0.0037723156 0.030656397 -0.004234431 0.067744724 0.040615384 0.034757014
0.0048087947 0.074967794 -0.025562182 0.045631584 0.023880906 0.014858789 0.011735767 0.023427244
0.028992606 -0.0070459815 0.006431136 0.04502084 0.018765092 0.008051493 -0.009586131 2.1960468e-06
0.044331 -0.019470606 -0.00856087 0.027122773 0.0029759225 0.06693354 0.039137825 0.057614617
0.005298733 0.021243671 0.016762776 0.01858458 -0.0003052355 -0.006821679 0.01838104 0.013256417
0.05763696 -0.010332077 0.034475982 -0.015975747 0.012977398 0.03286007 0.010983658 0.032728218
00000000: f622 803d 1854 19bc 8711 87bb 333a df3c
00000010: 466b 91bc 5768 643d b4de 443d 1b01 d03b
00000020: e9d3 d03c 4935 f13c a71d 2a3d c8a9 703d
00000030: 2a18 883c d0c8 b13d 95f9 043d 4605 873b
00000040: 79a5 9abc 9212 373d f438 773b 2023 fb3c
00000050: fbc0 8abb bfbd 8a3d 515c 263d 5f5d 0e3d
00000060: 1893 9d3b b788 993d c867 d1bc 2fe8 3a3d
00000070: e4a1 c33c 4772 733c 6047 403c 7eea bf3c
00000080: e781 ed3c fae1 e6bb 47bc d23b c667 383d
00000090: 40b9 993c 69ea 033c 260f 1dbc cc5f 1336
000000a0: 6c94 353d d280 9fbc e442 0cbc 9430 de3c
000000b0: b207 433b 7414 893d fc4e 203d 4efd 6b3d
000000c0: fea0 ad3b 3507 ae3c 1752 893c b03e 983c
000000d0: 0408 a0b9 6488 dfbb d693 963c 7131 593c
000000e0: bc14 6c3d df47 29bc b036 0d3d 92df 82bc
000000f0: 279f 543c 4898 063d cdf4 333c 060e 063d

layers.1.norm2.running_mean f4 [64]
-0.0968091 -0.20159517 -0.36075503 -0.21961656 -0.3883799 -0.41324034 -0.30388233 -0.21574391
-0.19503686 0.032232694 -0.4002578 -0.48266667 -0.09851827 -0.22888009 -0.18582359 -0.24583739
-0.15026565 -0.43010274 -0.057706825 -0.1843085 -0.17370313 -0.09136056 -0.18057503 -0.106488
-0.15111059 -0.169091 -0.12499804 -0.18997605 -0.17895159 -0.37849885 -0.30034947 -0.08735371
-0.191017 -0.08516673 -0.17141315 -0.3165043 -0.2577944 0.037741188 -0.05017199 -0.36792037
-0.19595622 -0.3270275 -0.4156392 -0.18254536 0.04598628 -0.2774226 -0.4895149 -0.34017888
-0.43789208 -0.28339827 -0.32427207 -0.16698092 -0.259338 -0.5317311 -0.28365925 -0.278206
-0.27646598 -0.27789268 -0.41407645 -0.2432256 -0.10038282 -0.24328914 -0.09421062 -0.2862342
00000000: d943 c6bd f76e 4ebe e2b4 b8be 2ae3 60be
00000010: bbd9 c6be 3d94 d3be 7796 9bbe f9eb 5cbe
00000020: beb7 47be 6e06 043d 97ee ccbe 1620 f7be
00000030: f2c3 c9bd 8b5f 6abe 8a48 3ebe ccbc 7bbe
00000040: 3ddf 19be 6d36 dcbe fe5d 6cbd 5ebb 3cbe
00000050: 3cdf 31be 3f1b bbbd a9e8 38be 6116 dabd
00000060: bcbc 1abe 3126 2dbe f9fe ffbd 1589 42be
00000070: 163f 37be 9aca c1be 68c7 99be 80e6 b2bd
00000080: f699 43be e56b aebd ee86 2fbe da0c a2be
00000090: a1fd 83be 8196 1a3d 2581 4dbd 0f60 bcbe
000000a0: bfa8 48be 2670 a7be a9ce d4be 2ced 3abe
000000b0: 1c5c 3c3d 560a 8ebe b2a1 fabe ed2b aebe
000000c0: 6433 e0be 9419 91be fd06 a6be 0cfd 2abe
000000d0: f3c7 84be 881f 08bf c93b 91be 0471 8ebe
000000e0: f38c 8dbe f347 8ebe d401 d4be 2210 79be
000000f0: 8295 cdbd ca20 79be 7ff1 c0bd 4a8d 92be

layers.1.norm2.running_var f4 [64]
0.19169357 0.15160465 0.20982632 0.16829382 0.1629058 0.16692118 0.16507827 0.16970679
0.14380479 0.17208633 0.144218 0.17670204 0.16564618 0.1862704 0.14922918 0.16145319
0.16447702 0.162898 0.16477334 0.17133644 0.17667702 0.17714348 0.17763661 0.15455921
0.1856599 0.14677823 0.17166263 0.16731651 0.14980821 0.16247617 0.16239633 0.20405076
0.15696768 0.1739352 0.15293132 0.16014075 0.15470587 0.15276477 0.1742321 0.14672975
0.16548997 0.15298602 0.15853858 0.1552399 0.15966572 0.17401688 0.19154844 0.20474781
0.1500967 0.17760037 0.16565171 0.15767792 0.17678086 0.1705165 0.20310289 0.1853307
0.14266662 0.1847562 0.1367369 0.1625039 0.1862809 0.17592691 0.16256955 0.1871601
00000000: 524b 443e 403e 1b3e b6dc 563e 3755 2c3e
00000010: c7d0 263e 63ed 2a3e 470a 293e 9ec7 2d3e
00000020: 9041 133e 6637 303e e2ad 133e 61f1 343e
00000030: 279f 293e abbd 3e3e 89cf 183e fc53 253e
00000040: aa6c 283e bcce 263e 58ba 283e d272 2f3e
00000050: d2ea 343e 1a65 353e 5fe6 353e c544 1e3e
00000060: a11d 3e3e 084d 163e 54c8 2f3e 0555 2b3e
00000070: 5367 193e 2760 263e 394b 263e aff2 503e
00000080: 23bc 203e 121c 323e 079a 1c3e f0fb 233e
00000090: 376b 1e3e 5e6e 1c3e e669 323e 5340 163e
000000a0: 3476 293e 5ea8 1c3e f057 223e 35f7 1e3e
000000b0: 697f 233e 7b31 323e 4625 443e 69a9 513e
000000c0: f3b2 193e dfdc 353e 9aa0 293e 5276 213e
000000d0: 0b06 353e e19b 2e3e 34fa 4f3e 55c7 3d3e
000000e0: 3317 123e bb30 3d3e c204 0c3e 6c67 263e
000000f0: 6cc0 3e3e 2f26 343e a278 263e e6a6 3f3e

layers.1.resize.0.weight f4 [128, 64, 1]
0.026326373 -0.025746565 0.12837245 0.067556545 -0.13602312 0.012054088 0.09244179 0.064155556
-0.036458552 -0.14446974 0.11241761 0.098553896 -0.088630795 -0.001636116 0.018597491 0.07265067
0.0075665982 -0.029472468 -0.031048767 0.086054616 0.094068594 -0.11737313 0.1063488 -0.009134284
0.022211619 0.023081888 0.011076704 0.08870074 -0.04740278 0.12801938 -0.07261384 -0.08337792
-0.06835775 0.07036615 0.04616455 -0.09876723 0.0074026952 -0.08817174 -0.08716062 -0.042328574
-0.01468718 0.07076723 0.11692074 0.1021738 -0.044305563 0.03538424 -0.0061199074 -0.04082784
-0.118863866 0.036186505 -0.09529261 -0.08557301 -0.087808445 0.03997796 0.11819075 0.048834156
0.09549685 -0.020230021 0.084037915 0.030828634 0.06465547 -0.1113257 0.021489393 -0.09387965
0.03367848 0.014293375 -0.10343341 0.08738775 0.12756424 -0.027844846 -0.052377798 -0.024149999
-0.13476051 -0.09540232 0.08073355 -0.07818983 -0.09730939 0.024506778 -0.08606726 -0.060098343
0.03277364 -0.04210684 -0.052889075 -0.1067874 0.016447276 -0.0005663339 -0.11319856 -0.0135331275
0.10816741 0.044856817 -0.050699167 -0.012928 -0.11039456 0.07264093 -0.050478198 -0.07267077
-0.11053008 0.1095987 2.2966802e-05 -0.088783555 -0.06303451 -0.01915423 -0.0029422124 -0.076709405
-0.11539028 0.016976498 0.06459257 0.05230686 0.039911237 0.0915057 -0.028413724 0.01136277
0.045552563 0.07145204 -0.010775692 -0.08315725 -0.13423347 0.011130631 -0.018457556 -0.048900627
0.03335848 -0.090532675 -0.12717722 0.0007535312 -0.046894316 -0.051188666 0.025350159 0.10259744
-0.00015176513 -0.0898282 0.079980455 -0.0036500415 -0.056727715 -0.10623018 0.05303658 -0.12715416
0.022332774 0.059606817 0.10743775 -0.08907021 -0.11662733 0.10855112 0.060318977 -0.07667111
-0.067861915 -0.012763143 -0.04936396 0.10156372 0.12381019 -0.083392695 0.02138697 0.07161113
-0.028092258 -0.012675386 0.08365504 0.08857489 0.03522265 -0.09983607 0.047402617 -0.081356145
0.035418034 0.017525977 0.07036141 -0.060988847 -0.13206404 -0.048525695 -0.053563874 -0.02873404
-0.0662073 0.06291644 0.10003561 -0.02432157 -0.022568656 -0.05714565 0.045361686 -0.028641086
0.024175694 0.046355143 -0.05453844 0.027319236 0.034206416 0.038015988 -0.08189988 -0.03484605
-0.038672537 -0.013316831 -0.07637605 0.07132228 -0.05752653 0.120272614 -0.12448053 0.019095106
-0.099253386 0.0037575627 -0.03979107 -0.102609925 -0.04678324 -0.048225164 0.081849486 -0.10125723
-0.039488994 -0.06278705 0.033408813 0.08137412 -0.03752715 -0.12478215 -0.0788548 0.043510914
0.078941986 -0.059436996 -0.07000745 -0.0909419 0.0324693 0.040325258 0.06573775 -0.11229004
-0.035727613 -0.07184374 -0.07612103 -0.0640131 -0.040063124 -0.032629266 0.09678938 -0.104353815
0.058238372 0.0129139535 -0.06313062 0.031404864 -0.064867765 0.06957927 -0.10112755 0.031941794
-0.12787679 -0.10118355 0.04346854 -0.07286688 0.017701734 -0.009279284 -0.0015600707 -0.079186715
-0.009091006 -0.09001097 0.092526026 0.014652822 0.03234779 0.07197552 -0.054546334 -0.09051035
-0.08473858 0.037051685 0.018942842 0.06532759 0.0041705733 0.011647737 -0.116631374 0.055117972
00000000: 68aa d73c 76ea d2bc 1174 033e 165b 8a3d
00000010: a549 0bbe 827e 453c 1f52 bd3d fd63 833d
00000020: 9055 15bd e0ef 13be 343b e63d a0d6 c93d
00000030: 1084 b5bd f172 d6ba c459 983c e0c9 943d
00000040: 3af1 f73b 3f70 f1bc fc59 febc 673d b03d
00000050: 09a7 c03d 5361 f0bd 66cd d93d f7a7 15bc
00000060: 24f5 b53c 3a16 bd3c 107b 353c bca8 b53d
00000070: 6b29 42bd 8317 033e 91b6 94bd 0bc2 aabd
00000080: 26ff 8bbd 211c 903d 0a17 3d3d 7946 cabd
00000090: 4f92 f23b 6393 b4bd 4481 b2bd ba60 2dbd
000000a0: 7fa2 70bc 69ee 903d 2474 ef3d 7f40 d13d
000000b0: c079 35bd 11ef 103d 8189 c8bb 183b 27bd
000000c0: e66e f3bd 4d38 143d c628 c3bd e740 afbd
000000d0: ead4 b3bd eebf 233d fe0d f23d 5306 483d
000000e0: da93 c33d 6eb9 a5bc 121c ac3d 558c fc3c
000000f0: 166a 843d bbfe e3bd 860a b03c f943 c0bd
00000100: 72f2 093d c32e 6a3c e5d4 d3bd 59f8 b23d
00000110: 33a0 023e e01a e4bc 1a8a 56bd 38d6 c5bc
00000120: a9fe 09be 4b62 c3bd a257 a53d fd21 a0bd
00000130: 254a c7bd 70c2 c83c 0844 b0bd ae29 76bd
00000140: a73d 063d 3978 2cbd 37a2 58bd 5ab3 dabd
00000150: 70bc 863c 0676 14ba a6d4 e7bd 0dba 5dbc
00000160: e086 dd3d c8bb 373d eea9 4fbd f6cf 53bc
00000170: 8b16 e2bd c5c4 943d 3ac2 4ebd 6ad4 94bd
00000180: 985d e2bd 4975 e03d d5a8 c037 27d4 b5bd
00000190: 3d18 81bd 55e9 9cbc 22d2 40bb d219 9dbd
000001a0: bd51 ecbd 4c12 8b3c 1c49 843d b83f 563d
000001b0: f779 233d 5767 bb3d e6c3 e8bc e92a 3a3c
000001c0: 5395 3a3d 7255 923d 878c 30bc 594e aabd
000001d0: 8074 09be 405d 363c 4d34 97bc 064c 48bd
000001e0: e7a2 083d 3269 b9bd bf3a 02be 9f88 453a
000001f0: 4114 40bd 35ab 51bd 23ab cf3c 9b1e d23d
00000200: 2423 1fb9 d9f7 b7bd cbcc a33d 8935 6fbb
00000210: 525b 68bd 358f d9bd e33c 593d b334 02be
00000220: 39f3 b63c 4726 743d 5308 dc3d 716a b6bd
00000230: 4fda eebd 0d50 de3d 0811 773d be05 9dbd
00000240: 30fb 8abd 801c 51bc dd31 4abd a400 d03d
00000250: 3290 fd3d cac9 aabd ba33 af3c dba8 923d
00000260: bc21 e6bc 6cac 4fbc 5553 ab3d c066 b53d
00000270: a045 103d da76 ccbd 3f29 423d 0d9e a6bd
00000280: 8012 113d a392 8f3c a519 903d 71cf 79bd
00000290: cc3b 07be e1c2 46bd cb65 5bbd a663 ebbc
000002a0: b197 87bd 56da 803d 78df cc3d 073e c7bc
000002b0: e7e1 b8bc 8f11 6abd 2dcd 393d b6a0 eabc
000002c0: 1b0c c63c e4de 3d3d b363 5fbd 97cc df3c
000002d0: 071c 0c3d a7b6 1b3d 20bb a7bd bbba 0ebd
000002e0: 1867 1ebd d62e 5abc 0c6b 9cbd 6a11 923d
000002f0: f0a0 6bbd 7d51 f63d a6ef febd 576d 9c3c
00000300: 5c45 cbbd 7141 763b f6fb 22bd 2725 d2bd
00000310: c89f 3fbd c087 45bd b4a0 a73d f35f cfbd
00000320: 36bf 21bd 7f96 80bd aed7 083d 7aa7 a63d
00000330: 12b6 19bd c98d ffbd a07e a1bd 8038 323d
00000340: 56ac a13d 3574 73bd 1160 8fbd bf3f babd
00000350: 87fe 043d 192c 253d 83a1 863d 52f8 e5bd
00000360: 1e57 12bd d022 93bd 58e5 9bbd 4d19 83bd
00000370: 3b19 24bd 44a6 05bd 8339 c63d 74b7 d5bd
00000380: 5c8b 6e3d 0c95 533c a04a 81bd 63a2 003d
00000390: 64d9 84bd 947f 8e3d f61b cfbd 66d5 023d
000003a0: 22f2 02be 5239 cfbd 110c 323d 3b3b 95bd
000003b0: 3a03 913c 2308 18bc 497b ccba a52c a2bd
000003c0: 71f2 14bc ac57 b8bd 497e bd3d 6412 703c
000003d0: 1e7f 043d e767 933d fa6b 5fbd 7e5d b9bd
000003e0: 6c8b adbd 82c3 173d 052e 9b3c 79ca 853d
000003f0: 4ea9 883b 26d6 3e3c 6edc eebd 62c3 613d

layers.1.resize.0.bias f4 [64]
0.0069787167 -0.00039560968 0.05457798 0.043501224 -0.043385413 0.0056007183 -0.05692814 0.061351754
0.009803403 0.09326395 -0.10347729 0.008327959 0.038957793 -0.014039382 -0.12468421 -0.046802003
0.016303374 0.021246746 -0.049666654 0.055130824 -0.08438052 0.024921969 0.12655862 0.07806918
0.071290806 -0.11662133 -0.057274166 -0.004028332 -0.11200121 0.0007531366 0.09042361 -0.108103305
-0.01737507 0.07004593 -0.07489072 -0.07151647 -0.06524538 0.06560595 -0.08176055 -0.05769487
-0.07287231 0.10417074 0.005531247 0.0922745 0.047798593 0.09355328 -0.01839449 -0.02596025
-0.1215537 -0.073231794 -0.024956394 0.0069870898 0.0449043 0.02210311 -0.022315165 -0.011580547
0.06003491 -0.09158969 -0.08959861 -0.07816036 0.030143043 0.008691445 -0.029224018 0.06470459
00000000: b8ad e43b d569 cfb9 298d 5f3d 572e 323d
00000010: e7b4 31bd 3b86 b73b 7b2d 69bd fa4b 7b3d
00000020: 749e 203c 2b01 bf3d e7eb d3bd fe71 083c
00000030: 3592 1f3d 7005 66bc 6f5a ffbd 75b3 3fbd
00000040: a78e 853c a80d ae3c 436f 4bbd dcd0 613d
00000050: b2cf acbd 2829 cc3c 9598 013e bce2 9f3d
00000060: ea00 923d 2ad7 eebd 5198 6abd 1900 84bb
00000070: e460 e5bd 246e 453a 0330 b93d 4465 ddbd
00000080: 2a56 8ebc 3e74 8f3d 4e60 99bd 3a77 92bd
00000090: 5f9f 85bd 6a5c 863d 1372 a7bd 7551 6cbd
000000a0: 143e 95bd 7857 d53d 763f b53b 6afa bc3d
000000b0: 75c8 433d dd98 bf3d 0bb0 96bc 97aa d4bc
000000c0: 25f1 f8bd 8dfa 95bd 5a71 ccbc f5f3 e43b
000000d0: 92ed 373d 9511 b53c 4bce b6bc 56bc 3dbc
000000e0: 2ae7 753d 6093 bbbd 7a7f b7bd 8a12 a0bd
000000f0: 8bee f63c 9066 0e3c 3567 efbc d783 843d

layers.1.resize.1.weight f4 [64]
0.99106693 0.9895176 0.9851122 0.98467416 0.93732756 0.95860624 0.9460694 0.97614926
0.98436606 0.97208136 0.965022 0.95807666 0.9836089 0.9879771 0.9778895 0.97242147
0.9637804 0.961134 0.9822428 0.9850601 0.9688353 0.975612 0.96065646 0.96950316
0.9225994 1.0030547 0.98179513 0.95805615 0.97595614 0.97887677 0.9671005 0.9916015
0.95317584 0.9578369 0.93528575 0.975804 0.97611916 0.9497985 0.98766327 0.9392658
1.0014156 0.96030414 0.9831686 0.9716157 0.948029 0.96427304 0.93728507 0.9714616
0.92891675 0.930225 0.98540044 0.96767664 0.96671695 0.9463095 0.9513953 0.9519154
0.9692068 0.94422203 0.98529416 1.010187 0.9673702 0.9638558 0.95495117 0.97624075
00000000: 90b6 7d3f 0751 7d3f 5030 7c3f 9b13 7c3f
00000010: b3f4 6f3f 3867 753f 9b31 723f ebe4 793f
00000020: 6aff 7b3f 53da 783f af0b 773f 8344 753f
00000030: cbcd 7b3f 11ec 7c3f f756 7a3f 9df0 783f
00000040: 50ba 763f e10c 763f 4474 7b3f e62c 7c3f
00000050: 9705 783f b5c1 793f 95ed 753f 5c31 783f
00000060: 792f 6c3f 1964 803f ed56 7b3f 2b43 753f
00000070: 43d8 793f ab97 7a3f e693 773f 99d9 7d3f
00000080: 5503 743f cd34 753f e36e 6f3f 4ace 793f
00000090: f2e2 793f ff25 733f 80d7 7c3f b973 703f
000000a0: 632e 803f 7ed6 753f f0b0 7b3f cebb 783f
000000b0: 07b2 723f 99da 763f eaf1 6f3f b5b1 783f
000000c0: 7dcd 6d3f 3a23 6e3f 3443 7c3f a8b9 773f
000000d0: c37a 773f 5741 723f a48e 733f bab0 733f
000000e0: f01d 783f 89b8 713f 3d3c 7c3f cf4d 813f
000000f0: 93a5 773f 41bf 763f ae77 743f eaea 793f
